datasets/catAndDogs.pth (torch, 681259 bytes, 10 tensors)

conv1.weight f4 [6, 3, 5, 5]
000000 f7 e2 50 3d d0 8a e7 bd a2 66 3a be f2 4b d7 bd
       0.0509977 -0.11305773 -0.18203214 -0.10512532
000010 04 4b 2d bc 99 b7 b1 3d 94 19 1b be b9 ca 59 3b
       -0.010576967 0.086775966 -0.15146476 0.0033232404
000020 0f 2c 27 bd b5 59 bc bd 81 1f 50 bd 28 53 3f bd
       -0.040813502 -0.09196798 -0.050811294 -0.046710163
000030 37 0d 22 3a 35 39 8c 3d 15 c0 13 3d 63 55 12 3e
       0.0006181779 0.06846849 0.036071856 0.14290385
000040 be 84 45 3e f7 7a 0d 3e 94 f1 a4 3d 7b c4 15 bd
       0.19288918 0.13816439 0.0805389 -0.03656433
000050 12 f9 41 3d 4b 3e 2b 3e 43 b9 b7 3c c4 47 40 3e
       0.047356673 0.16722982 0.022427207 0.18777376
000060 e3 5d d1 3d 37 a4 83 bd 77 fd d2 bd a2 47 1d be
       0.102229856 -0.06427806 -0.10302251 -0.15359357
000070 81 b1 a2 3d 6e 59 c3 3d 3d 32 b0 bd 5b 9e 67 bd
       0.079440124 0.09538542 -0.08603332 -0.056547504
000080 f6 d7 23 be 29 dc 18 be b6 f1 9d bd c7 b2 49 3d
       -0.16000351 -0.14927734 -0.07712118 0.04924276
000090 a2 7b 9b bd d4 d1 ef 3c e6 93 c1 bd 4d a2 e8 bd
       -0.075919405 0.029274859 -0.094520375 -0.113590814
0000a0 3a 35 b8 3d 81 4c 0b 3e 0a 80 95 bb 1a 17 ca bd
       0.08994527 0.13603403 -0.0045623826 -0.098676875
0000b0 97 65 4f 3b fb 54 48 bd 4d 69 1e 3c 51 04 6d bd
       0.0031646246 -0.04890917 0.00966866 -0.057865445
0000c0 bc f5 82 bc 54 52 85 bd 12 8f 5f bd 45 33 a9 bc
       -0.015986316 -0.065098435 -0.0545798 -0.02065433
0000d0 b4 57 7f bb b1 aa 72 bd c9 ab a6 3d d8 7b 6b 3d
       -0.0038962187 -0.059244815 0.08138234 0.057491153
0000e0 73 24 0a bd 97 d2 cf bd 70 af aa 3c fd 47 d7 3d
       -0.033726167 -0.10147589 0.020835608 0.105117775
0000f0 72 92 cd 3d 86 73 11 3d 4a a0 27 3d e4 11 c1 bd
       0.10037698 0.035510562 0.040924348 -0.094272405
000100 aa 20 9f bd f1 64 27 3d aa c2 2a 3d 29 2a fe 3d
       -0.07769902 0.04086775 0.041689552 0.12410385
000110 e8 a8 2e bb 1b 7c 28 bd d1 61 b9 3d 31 35 4b 3d
       -0.002665097 -0.04113398 0.0905186 0.049611274
000120 4e f6 14 3e b3 4b 06 3e 7c dc a2 3d 2a a9 0b 3b
       0.14547083 0.13114814 0.0795221 0.0021310546
000130 dc 25 e2 3d 87 94 28 ba c8 09 1e 3e 93 56 f7 bc
       0.11042377 -0.00064308237 0.15433419 -0.030192649
000140 7f 3c fa 3d 4f b2 9e 3d c3 67 30 3c cd a7 60 3d
       0.1221857 0.077488534 0.010766926 0.054847527
000150 1d 7d 5d bd 9b 98 b1 3c 69 d4 37 bd 74 ae 3d 3d
       -0.054074395 0.021679213 -0.044880304 0.04630895
000160 5e 38 0a 3e c3 4f 11 3e 3a 88 90 bb 67 c9 f4 bd
       0.13498065 0.14190583 -0.0044107707 -0.11952477
000170 49 ca 45 3c d3 54 2a 3e 70 56 82 bd f9 7d dc bd
       0.012072154 0.1663392 -0.06364143 -0.10766215
000180 42 f1 c0 3d e1 16 94 bd f1 9a 12 3e c4 f8 d6 3d
       0.09421016 -0.07230926 0.14316918 0.10496667
000190 92 9f 8e bb 3f dd 93 3d ca 2a c7 3d b8 8b f2 bd
       -0.0043525184 0.07219934 0.09724958 -0.118430555
0001a0 44 5c 0c be 85 e8 26 be 0e e7 a1 bd c1 b4 ca 3d
       -0.13707072 -0.16299637 -0.07905398 0.09897757
0001b0 83 67 a5 3d e4 61 0a be 60 c9 06 be 07 71 10 be
       0.08076384 -0.13513905 -0.13162756 -0.14105617
0001c0 3c 88 77 3d 4e d2 0f bb 66 25 52 bc 3b 5b 0b be
       0.060432658 -0.002194542 -0.012826299 -0.1360902
0001d0 cb 01 2f be 2e 75 42 3d 5b 24 d4 bd 78 5a f6 bd
       -0.17090528 0.047475033 -0.10358497 -0.12028974
0001e0 bf da a0 bd 74 6c 30 be 1e 0c d6 bd 06 79 d9 bd
       -0.078542225 -0.17228872 -0.1045153 -0.106187865
0001f0 0b 6e 9f 3a b5 9d 58 bd bd e7 1e 3d 3b ea e3 3c
       0.0012163533 -0.052884776 0.03879522 0.02782165
000200 12 54 1b bd bd a2 45 3c a0 ac b5 bd 11 2b 13 bd
       -0.037921973 0.012062726 -0.08870816 -0.035929743
000210 8a cc 0b 3e 2d d0 96 3c 7d b1 3e 3d 22 19 b8 3b
       0.13652244 0.018409813 0.046555985 0.0056182304
000220 6b cd f2 bc 37 d9 a6 3c f0 c8 3f bc ac 40 0f 3d
       -0.029638967 0.020367248 -0.011705622 0.034973785
000230 03 73 3c 3d a9 cf f6 bc 72 59 b3 bd 54 d1 30 3d
       0.04600812 -0.030128317 -0.08757295 0.04316838
000240 04 86 9c bd cc 20 02 3e 74 71 60 3d 44 af 8b bd
       -0.07642749 0.12707824 0.054795697 -0.06820539
000250 85 5f 0b 3d 77 14 e3 bc 9f a1 af 3d 46 31 c5 bd
       0.03402664 -0.02771972 0.08575749 -0.09628539
000260 a2 e1 eb bc 9e 43 80 bd 03 d6 cf bd ee 5e be bc
       -0.028794114 -0.06262897 -0.10148241 -0.023238625
000270 da 76 00 be 3f c7 c0 bd 7a ee c4 bd d6 a5 d7 bd
       -0.12545338 -0.09413003 -0.09615798 -0.105296776
000280 d2 51 32 3d 6d ba e9 bd 5a 6f bc bd 34 06 21 bd
       0.04353506 -0.11412511 -0.09200926 -0.039312556
000290 bd 54 5e bc af 05 0a 3d 46 65 2d bd d6 bb 90 bc
       -0.013570008 0.033696827 -0.04233291 -0.017667692
0002a0 c7 b2 25 bd 9d ff 1c 3e 3a 75 43 bd 2a ef 81 3c
       -0.0404537 0.15331884 -0.047719218 0.015861113
0002b0 ce 0e e0 bd 44 ef 1a 3d c5 58 e4 ba 8c 6e 55 bd
       -0.10940324 0.037825838 -0.0017421475 -0.05210738
0002c0 9c ae 0c 3e 04 f1 90 bd b4 03 4c 3d a7 11 1c 3d
       0.13738483 -0.0707722 0.04980822 0.038102772
0002d0 14 b7 0c bd 69 f8 80 bd c1 86 0a 3e 45 09 05 3e
       -0.034354284 -0.062973805 0.13527967 0.12991817
0002e0 81 27 57 3c d8 20 f9 bb d6 c2 52 3d ff cc 10 3e
       0.013131977 -0.0076027922 0.05145534 0.141407
0002f0 4d 59 6e 3d d3 ba 2b 3e 39 de 2a 3e 2d 21 7c bd
       0.058190633 0.16770487 0.16686334 -0.061555076
000300 ea 67 16 3c d2 0e ae 3a a6 96 3e 3d 17 e2 26 3e
       0.0091800485 0.0013279563 0.04653039 0.16297184
000310 50 17 0c 3e b4 0f 92 bd a7 a6 98 3d c0 9c f3 3d
       0.13680768 -0.071319014 0.074536614 0.11895132
000320 7a 26 8e bb 96 1e a6 bd 41 ba ba bc 1b d3 c7 3a
       -0.004338083 -0.081113026 -0.02279389 0.001524541
000330 bb 6e ae 3d 4e 1b 1f 3d 04 8c 62 3c be bf df 3d
       0.08517214 0.0388444 0.013827328 0.10925244
000340 ae 3d e0 bd 90 59 bc 3c 30 4d b0 bd bd df a9 3c
       -0.109492645 0.022991925 -0.08608472 0.02073657
000350 e9 82 0c be 4e 7d de 3c 24 29 16 bc b9 9a 02 bd
       -0.13721813 0.02715936 -0.009165082 -0.031885836
000360 77 be c3 bd d3 03 90 bd a2 79 51 bd 53 b5 ed 3d
       -0.09557813 -0.070319794 -0.05114139 0.116068505
000370 d5 14 76 bd ed cd 9b 3d 72 ad fc bd 4f 82 1e bc
       -0.06007846 0.076076366 -0.123377696 -0.009674623
000380 66 7a a3 bd 0d d1 68 bd c4 fc 15 3e ef c3 b3 bd
       -0.0798233 -0.05683999 0.14647204 -0.08777606
000390 f8 58 ad 3d e3 91 18 bd 6b 9d 7c bd 3c 38 13 3e
       0.08464235 -0.037248503 -0.061673563 0.1437692
0003a0 3f 70 d5 3c b0 7d c8 bd e6 be 61 bd 2b 43 e4 3d
       0.0260545 -0.09789598 -0.055113696 0.11145624
0003b0 60 4d b0 3c 35 0d bc bd fe f7 21 be cc 34 3b bd
       0.02152127 -0.091822065 -0.15817258 -0.045704648
0003c0 60 9e 8e 3d 6b 15 16 be 43 45 4a bd 24 c4 d7 3c
       0.069638014 -0.14656608 -0.04938246 0.026338644
0003d0 94 82 4b 3e 37 cc 5f 3d 84 0c b9 bd 54 1b 24 be
       0.1987403 0.054638114 -0.0903559 -0.1602605
0003e0 cf 87 cc 3d de 0d 1c 3e 3d 05 de 3d 70 24 d0 3d
       0.09986841 0.15239665 0.10840843 0.101632
0003f0 57 bf 26 3d 8f f7 d7 bd 23 97 cf bb 46 8a 17 3b
       0.04070982 -0.10545265 -0.0063351556 0.002312319

conv1.bias f4 [6]
000000 ce 32 c9 3c 4f d3 07 be fa a3 51 bd c0 06 f3 bc
       0.024560358 -0.13264202 -0.05118177 -0.029666305
000010 78 7d 89 bd f5 c5 b2 3d
       -0.067133844 0.087291636

conv2.weight f4 [16, 6, 5, 5]
000000 b1 19 05 bd 4f c3 a1 bc f1 df 85 bc 13 2e 9c 3d
       -0.032495204 -0.01974645 -0.016342135 0.076259755
000010 88 68 43 bc 50 20 a2 3d 48 29 8e bd 62 d8 1b bd
       -0.011926778 0.07916319 -0.069414675 -0.038048156
000020 ba 43 01 3e fa 21 ae bd 76 ab 18 3c 8e 3e 10 3d
       0.12623492 -0.08502574 0.009318223 0.035215907
000030 0a 4f 3e bc 12 ac 07 3d 9c e1 eb bc ae 53 29 bd
       -0.011615524 0.033123083 -0.028794102 -0.04133957
000040 63 71 bf bb b5 65 e0 bd 16 29 8d 3d 81 5c eb bd
       -0.005842374 -0.10956899 0.06892602 -0.11492253
000050 26 21 9a bd 22 e0 ca ba ca d9 91 bd 2c 92 3f bd
       -0.07525854 -0.0015478174 -0.07121618 -0.04677026
000060 82 23 9b bd 56 31 09 bd fa 09 86 3d a1 ff fb 3d
       -0.07575132 -0.033494316 0.06544872 0.12304617
000070 d4 92 33 be c0 af bf 3d a4 e6 14 bd 3e 8a 14 3e
       -0.17536479 0.093596935 -0.03635277 0.1450586
000080 a4 03 53 3e 97 2f 0a be 22 84 00 bd 74 1c 65 bd
       0.20606858 -0.13494717 -0.03137601 -0.05593534
000090 ef 9b 7b 3d af 42 6c 3e 7c f1 c4 bd cb f3 ba bb
       0.061428007 0.23072313 -0.09616372 -0.005705332
0000a0 e2 f0 5f bd 9b 69 9c bd a0 21 13 3e d4 de 2b be
       -0.054673083 -0.0763733 0.14368296 -0.16784221
0000b0 7a 16 dc bd d4 2c 50 be ac 7e 15 be e6 17 68 3d
       -0.107464746 -0.203296 -0.14599103 0.056663416
0000c0 36 71 38 be ce 99 3b be 93 88 35 3c 71 66 21 3e
       -0.18011937 -0.1832039 0.011079925 0.15761735
0000d0 48 91 c9 bd 9d 88 84 3d c4 57 91 3d ea 2d 8d bd
       -0.09842163 0.064713694 0.07096818 -0.06893523
0000e0 ac 54 ed 3d 16 8f 1f be 3d c6 6b bd cf 2b 13 3e
       0.115884155 -0.15581927 -0.0575621 0.1437218
0000f0 18 23 8a bd a8 81 fb 3c 1d 84 61 bd ae 88 a5 bd
       -0.06744975 0.030701473 -0.055057634 -0.0808271
000100 09 ec 3b bc 4e e7 14 bd 0b e6 87 3d 98 0b 88 bc
       -0.011469849 -0.0363534 0.06635674 -0.01660709
000110 67 69 85 bd c4 88 b8 3b 33 f7 16 bd 45 ef bd 3d
       -0.065142445 0.005631538 -0.03685684 0.09274153
000120 62 c8 9e 3d 6a 62 ec bd 73 0e f2 3c 38 b5 3d bc
       0.07753064 -0.115422085 0.029547906 -0.01157885
000130 bc ea f6 3d da da 85 be fa 02 b6 3d fd 13 d8 3d
       0.12056491 -0.26143533 0.088872865 0.105506875
000140 90 45 15 bd a1 c4 ea 3c 49 3f 33 be 57 fb 17 3d
       -0.036443293 0.028658213 -0.1750461 0.03710493
000150 57 7d 18 bd fe c7 04 3c 32 11 08 bc c4 0a 44 be
       -0.03722891 0.0081043225 -0.008304881 -0.19144732
000160 cd d3 c5 3c 2f 72 18 ba 5a 9d 3f 3d 77 ee ef 3c
       0.024148846 -0.00058153545 0.04678092 0.029288514
000170 83 a8 bf bd 4b fb 45 bd fa f4 bf bc 6e 63 c0 3d
       -0.09358313 -0.048335355 -0.023432244 0.09393965
000180 5e 14 a2 3d a5 56 a3 3c 5f 6b bc 3d fa f7 2f bc
       0.07914041 0.019938776 0.09200167 -0.010740275
000190 dc 4c 75 3c 51 d6 28 3d 20 9d a8 bd 4d fe f2 bd
       0.014971938 0.041220013 -0.08233094 -0.1186491
0001a0 ad 51 27 bd 74 aa 76 3d 53 5e ea bc 5a 14 c9 3d
       -0.040849376 0.06022115 -0.02860943 0.09818335
0001b0 41 94 e4 bd fe e2 2d 3d 31 9f dd bd 39 d6 87 bc
       -0.1116109 0.042452805 -0.10821379 -0.016581642
0001c0 5a d6 81 3d a5 ab 8d 3d 84 74 b4 ba 1b c9 eb bd
       0.063397124 0.06917504 -0.0013767635 -0.11512967
0001d0 0a 94 0a be e2 de 26 3d bc 2b cf bd 65 5d 8b bd
       -0.13533035 0.0407399 -0.101157635 -0.06804923
0001e0 67 10 21 be 43 a5 d1 bd 0e d1 e5 bd 67 fd 38 be
       -0.15728913 -0.10236599 -0.11221515 -0.18065415
0001f0 0a 1a 4d be 03 dc f8 3c 80 29 f3 bd fd 60 e5 bd
       -0.20029464 0.030378347 -0.1187315 -0.1120014
000200 21 21 18 3e bc dc 61 bd 27 65 dc 3d ab 0c ae bd
       0.14856388 -0.05514215 0.10761481 -0.0849851
000210 3f b8 1d be f9 0c 14 3e db 3a 50 3c 42 11 35 3d
       -0.15402316 0.14458074 0.012709345 0.04420591
000220 e1 98 52 bd 1c 16 f7 bd bd ff 00 3e a6 93 ba bb
       -0.051415328 -0.12064764 0.12597556 -0.0056938706
000230 6f 06 84 3c 3f 3e a8 3c 2a fe 41 bc 35 71 95 3d
       0.016116349 0.020537494 -0.011840383 0.07296983
000240 d0 63 82 bc a5 95 84 3d 73 89 0f 3c 00 b2 2b bd
       -0.015916735 0.06473855 0.008760798 -0.0419178
000250 2d d2 1f 3c 0e ab 42 3d 63 49 dc 3c c7 f5 d9 3d
       0.0097547 0.04752641 0.026890462 0.106425814
000260 f4 53 ab 3d 00 93 d0 3d 79 34 b4 bc b8 5e 7c bd
       0.08365622 0.10184288 -0.021997677 -0.06161377
000270 66 d7 cf bd 44 0f 0b 3d 99 31 7b bd c9 ad a4 bd
       -0.10148506 0.033950105 -0.061326597 -0.080409594
000280 ab 98 6c 3d e7 af 3f 3d b7 a2 09 be e2 57 3f bd
       0.057762783 0.046798613 -0.13440977 -0.04671467
000290 f3 f3 cb 3a 66 17 90 bd 44 6f c8 bd 0c 6a 65 bd
       0.0015560373 -0.07035713 -0.09786847 -0.056009337
0002a0 a8 43 aa bd e8 7f 7d bd e1 e1 b4 3b fb e1 1a 3d
       -0.08313686 -0.06188956 0.005520091 0.037813168
0002b0 28 93 ee bc f0 0b df 3b 8e 91 1e bd a4 b8 0c be
       -0.029122904 0.006806843 -0.03871303 -0.1374231
0002c0 8f 29 8e bb 10 cd fa bc 96 ec 0e bd 38 53 c1 bd
       -0.0043384503 -0.03061536 -0.034893595 -0.09439701
0002d0 0e 00 2d bd f8 22 07 3d 3e f8 82 b9 ce 58 af bd
       -0.04223638 0.032992333 -0.00024980487 -0.0856186
0002e0 97 86 98 3d 34 06 3a bd 22 8d d2 bd da c1 c5 3b
       0.07447546 -0.045416072 -0.10280825 0.006035072
0002f0 a3 d2 50 bd 2f 21 8f 3d e6 74 7a bd ac a2 a2 bd
       -0.05098213 0.06988751 -0.06114664 -0.079411834
000300 34 5e 77 bd 32 d1 8a bd 12 bd a3 3d fb d5 a7 3c
       -0.060392573 -0.06778182 0.07995047 0.020487776
000310 df 30 37 3d a9 34 ca bd 4a 5d de ba 19 fb 28 3d
       0.04472434 -0.098733254 -0.0016965058 0.04125509
000320 35 14 e8 3c cd df f9 3c 59 a5 6d bc e4 ea 3a 3c
       0.028329948 0.030502224 -0.014504754 0.011408541
000330 d8 b9 b5 3d b9 c1 a5 bd 9d b7 97 3d 6d f6 be bc
       0.088733375 -0.0809359 0.07408068 -0.023310864
000340 28 33 62 bd 0e 96 1f bd 9b eb 81 3d 80 2a 71 3d
       -0.055224568 -0.038961463 0.06343766 0.05887842
000350 47 64 22 3d 11 8b 69 3d 9e 72 79 3d 06 54 0a bd
       0.039646413 0.05701739 0.060900323 -0.033771537
000360 9d 4c e2 3c ae 42 5b 3d 21 f0 01 3e b7 a4 e5 3d
       0.027624423 0.053530388 0.12689258 0.112130575
000370 a9 73 c2 3d 6f 8e 2e 3c 24 d6 84 3c 73 07 0c 3e
       0.09494717 0.010654076 0.016215391 0.13674717
000380 16 bd 53 bc 00 ae 64 3a f3 6d 9c 3d 3c df df 3d
       -0.0129235 0.0008723438 0.07638159 0.109312505
000390 ea 23 1d 3d 8d 21 cc 3d 8f fe 2e 3d 02 bb 71 3c
       0.03836433 0.09967337 0.042723235 0.014754059
0003a0 c0 10 bb bd 1d a7 af bd 6e 18 15 3d 81 3c 5b 3d
       -0.09134054 -0.08576796 0.03640025 0.053524498
0003b0 95 d1 79 bd e0 bf c1 bd c7 2d 7d 3d 11 93 39 3d
       -0.06099089 -0.094604254 0.061811235 0.04530627
0003c0 74 8d fa bc de 81 dc 3c 20 8d c8 3c 58 eb aa 3d
       -0.030585028 0.026917394 0.024481356 0.083456695
0003d0 86 7e 92 bd a9 97 5e 3d 14 3c 16 3d 38 90 bf 3c
       -0.07153039 0.054343853 0.03667839 0.023384199
0003e0 20 de 0a 3d 55 6a 03 3d 13 47 af 3d 93 b9 75 bc
       0.03390324 0.032083828 0.08558478 -0.014997858
0003f0 90 be e6 3c da a9 30 3d 09 99 08 ba b4 d1 54 bd
       0.02816704 0.043130733 -0.00052107923 -0.0519578

conv2.bias f4 [16]
000000 d8 a9 7d 3d 90 17 1d bb ad 59 00 3e be e3 44 bc
       0.061929554 -0.0023970343 0.12534209 -0.012017189
000010 fa 2c 4a 3d f3 e9 2a 3d be 62 be 3d e6 1c e2 3d
       0.0493593 0.041727018 0.09296177 0.11040668
000020 e1 b8 61 3d e8 ba 35 bd 9c d8 97 bd d4 41 8c bd
       0.055107955 -0.0443677 -0.07414362 -0.06848493
000030 06 07 9b bc 73 78 10 bd d5 bd 7d 3d 3c 44 a3 bd
       -0.018924247 -0.03527112 0.061948616 -0.07971999

fc1.weight f4 [120, 1296]
000000 a8 b1 97 bd 4d 91 a2 bd 51 16 9f bd ef b0 c1 bd
       -0.07406932 -0.0793787 -0.077679284 -0.094575755
000010 8f d2 8a bd a1 0f 16 bd bf 79 d7 bc 55 a9 0b bc
       -0.06778442 -0.036636 -0.02630317 -0.008524259
000020 41 1a d0 3c 68 1b 7c bd fe 48 b1 bd e1 48 fc bd
       0.025403144 -0.061549574 -0.086565 -0.12318588
000030 f4 6a fa bd 66 90 13 bd af ff 4f bd 9a 0b 22 bc
       -0.12227431 -0.03602638 -0.05078095 -0.009890461
000040 08 79 0a bd ad 2d 18 3c 7c 74 29 bd 54 b4 f7 bc
       -0.03380683 0.009288234 -0.041370854 -0.030237354
000050 2c 64 ab bc 3f 80 70 bd bc c8 0e 3d 6f 37 5a bd
       -0.02092179 -0.058716055 0.034859404 -0.05327552
000060 d5 9a c9 bb f9 82 22 3d f8 fb 97 bc cb a1 aa bb
       -0.0061524906 0.039675687 -0.018552765 -0.0052072755
000070 e7 d9 c5 bb 76 e0 f9 3c ea 9a 05 bc 96 f7 11 bc
       -0.006037939 0.03050254 -0.00815461 -0.008909127
000080 bd 82 94 3c a6 cd 29 3c 66 32 2f 3c d3 b6 9c 3c
       0.018128747 0.010363972 0.010693168 0.019130146
000090 39 9b 43 3c 7a 44 8a bc 53 c1 47 bc bb 2d d4 3c
       0.011938863 -0.016878355 -0.012192088 0.025900712
0000a0 fe dc c3 bb ff 83 40 3d f0 82 7b bc d7 b0 2a 3c
       -0.005977272 0.04700088 -0.015351042 0.0104181385
0000b0 1e 3f ad 3c 1c b2 6d 3d 01 4f 08 3d 95 a9 5a 3d
       0.02114826 0.058031186 0.03327847 0.053384382
0000c0 05 54 13 3d 44 92 2c bd 77 f2 b4 3c 93 15 9c ba
       0.0359688 -0.042131677 0.022088272 -0.0011908285
0000d0 c3 46 2e 3d 0b 15 c5 3c f6 55 86 3c b7 70 a3 3d
       0.042547952 0.024057886 0.016398411 0.07980483
0000e0 a0 e9 0b 3d 73 c0 2d 3d d6 f8 c6 3c 56 a5 18 3d
       0.03415835 0.042419862 0.024288576 0.03726705
0000f0 f7 0b 27 3d cd c2 1c 3d 55 d8 c4 3c 3a 4a 9a 3b
       0.040782895 0.038271714 0.024028936 0.0047085555
000100 0f d6 0b 3d f7 7c 68 3d 3d d2 7a 3d d0 6d ae 3d
       0.03413969 0.0567598 0.061235655 0.08517039
000110 af c2 ad 3d a7 79 83 3d 77 9f 69 3d 16 29 6d 3d
       0.084843986 0.06419688 0.057036843 0.05790051
000120 bb f5 36 3d 6e c7 4a 3d fb 14 ff 3d 81 36 11 3e
       0.04466794 0.049506597 0.124551736 0.14180948
000130 0e 1a 17 3e b0 4e e7 3d cb 45 c3 3d 89 a4 da 3d
       0.14756033 0.11294305 0.09534796 0.10675914
000140 91 65 77 3d f5 ee 16 3c 3f 90 2e 3c bf e3 ae 3c
       0.060399596 0.009212245 0.010654508 0.021348832
000150 58 f9 71 3d 20 aa 12 3d 8d 1c 2b 3d 13 86 8a 3d
       0.059075683 0.035806775 0.041775275 0.06763854
000160 31 e3 de 3c 7d 30 1f 3d c5 f4 bc 3c ff 97 18 3d
       0.027207943 0.0388646 0.023065934 0.03725433
000170 6f ce 8b 3c 75 dc c2 bc 75 fb 82 bb 99 58 e1 3b
       0.017066209 -0.023786763 -0.003997261 0.0068770167
000180 f8 0b 92 3b 6e 2b 4d bb c1 f4 53 3b bc 0c 18 3d
       0.004456993 -0.0031306404 0.003234193 0.03712152
000190 ec 2e 04 3d c8 0a 5f 3d 96 54 44 3d 4e 7d 24 3d
       0.03227131 0.05445364 0.04793223 0.040158562
0001a0 0d 3d 09 3d 1e ca c3 bc 0c 4f fe 3b 56 8b ad bc
       0.03350549 -0.023900088 0.007760888 -0.021184605
0001b0 56 8b 20 3d 59 e6 1e 3d 8a a8 5c 3c ea 95 60 bc
       0.03919538 0.038793895 0.013467917 -0.013707617
0001c0 dd 1b ef 3c 6b fd bb 3c 0d 47 34 bc 03 b0 b5 3c
       0.029188091 0.022947988 -0.011003268 0.022178655
0001d0 ad c4 4d bc 7e 23 54 3d f1 77 9b 3c 82 62 ae bc
       -0.012559098 0.05179166 0.018978091 -0.021287207
0001e0 c0 6d 8c 3c f0 db 43 bb 21 83 fb 3c 07 2d 61 3d
       0.017142177 -0.0029885732 0.030702176 0.054974582
0001f0 da 5c 68 3d a0 35 74 3c 93 63 53 3d c9 31 6f 3d
       0.056729175 0.014905363 0.051608633 0.05839709
000200 54 59 a7 3c 95 c2 01 3c 9a 66 b7 3c 3f cc 9f 3b
       0.020428337 0.007919927 0.022387791 0.004876643
000210 f1 0e 56 3d db 93 ec 3c ac 80 6d 3d a8 52 2b 3d
       0.052260343 0.028879097 0.05798404 0.041826874
000220 e0 f2 07 bc 5b fd 60 3d d6 0d 20 3d b6 4a 5e 3d
       -0.008297652 0.05492912 0.039075695 0.05427047
000230 eb 7c 6c 3d ed c3 e3 39 bb 72 f4 3b f8 31 9c 3c
       0.05773632 0.0004344279 0.007459966 0.019066796
000240 ad fc ad 3c d1 01 a6 bc 79 ee db 3c c1 d6 c6 3c
       0.02123865 -0.020264538 0.026847111 0.024272325
000250 d8 f6 b2 3c 9b ea b4 3c ae ae 4e bc 0d 19 75 bc
       0.02184622 0.022084525 -0.012614889 -0.014959586
000260 0e dc d2 bb 63 4c cc 3c 84 85 58 3c d4 dd 28 3d
       -0.006434924 0.024938768 0.013215426 0.041227177
000270 4c f4 e7 ba 0b b7 d4 bc 30 eb 4c bb 17 c9 18 bd
       -0.0017696708 -0.025966188 -0.0031268112 -0.03730115
000280 2d 6f b4 bb bf 4f ac bc c6 a9 53 3b 98 29 7b 3d
       -0.0055064172 -0.02103412 0.0032297238 0.061318964
000290 a8 48 aa 3d 8b f4 c5 3d 48 53 e5 3d 65 73 7c 3d
       0.08314639 0.096657835 0.11197525 0.061633486
0002a0 72 fe a1 3d f9 2e 73 3d 46 2b ef bb 72 22 d8 bc
       0.0790986 0.05937097 -0.00729886 -0.026383612
0002b0 0c 61 ce 3c 41 b2 dc 3c cb af 43 3c bf 8b 1f bc
       0.02519276 0.026940467 0.011943768 -0.009737908
0002c0 5c db b1 bc c0 b8 12 bd d5 80 92 bc 3a d5 83 3c
       -0.021711044 -0.035820723 -0.017883698 0.016092885
0002d0 1b e5 c1 bc 67 ba 9c bc 26 7e 00 bd 7f 02 41 bc
       -0.023668816 -0.019131852 -0.031370305 -0.01178038
0002e0 38 9c 50 ba 6f 33 db bb d6 d6 14 bc d8 9e b2 bc
       -0.0007957849 -0.006689481 -0.009084424 -0.021804258
0002f0 ed 83 1e 3c 61 eb 1f 3b 00 56 90 bd 42 b7 8b bd
       0.009675008 0.0024401771 -0.07047653 -0.06822063
000300 fb 70 ff bc 5a b1 1e bd a3 33 80 bc 9a 1d 9a bc
       -0.031181803 -0.038743354 -0.015649622 -0.018812943
000310 18 b2 1e bd d6 93 05 3b e7 53 a9 3b 54 42 c8 bc
       -0.038744062 0.0020382307 0.0051674726 -0.02444569
000320 c7 46 2e bd 84 6c 63 bd aa 7d 62 bd ba 0a 35 bd
       -0.042547967 -0.05552341 -0.055295624 -0.044199683
000330 9a e6 c5 bc 03 69 6a bc 71 b4 8e bc 4b db db 3c
       -0.024157811 -0.014307263 -0.017420026 0.026837965
000340 26 db 38 bc 39 af 0c bd 25 d5 9c bd 9c c0 65 bc
       -0.011282718 -0.034346793 -0.076578416 -0.014022972
000350 42 e6 4f bc e7 5c 47 3b d9 f1 24 bd 95 d9 37 3c
       -0.012689175 0.0030420364 -0.040269706 0.011221309
000360 50 99 fe 3b 9b 98 bb bc c6 ad 32 bd a2 e7 0c bd
       0.007769741 -0.022899916 -0.043622755 -0.03440059
000370 03 51 95 bc b9 a1 69 bc da cc 46 bd 3e 6d e6 bc
       -0.018227106 -0.014259749 -0.048535205 -0.028128263
000380 29 92 ab 3c 95 ed 1a bd 7d 57 34 bc fc 14 54 bd
       0.020943718 -0.037824232 -0.011007187 -0.051777825
000390 42 46 6b bd c4 bc c7 bc 15 f8 eb bc d6 b0 52 bd
       -0.05744005 -0.024382003 -0.028804818 -0.051438175
0003a0 15 b6 25 bd d5 cc d1 bb cd b6 87 bd 60 b0 0a bd
       -0.04045685 -0.0064025917 -0.06626663 -0.03385961
0003b0 db 14 c7 bd 39 96 92 bd aa 0a 93 bd 71 a0 a8 bd
       -0.09720775 -0.07157559 -0.071797684 -0.08233727
0003c0 7d 99 95 bd 4d 05 b4 bc 68 ce 72 bd d1 a3 7d 3a
       -0.07304666 -0.021975184 -0.059278876 0.00096755946
0003d0 e0 3f 48 3d 34 39 4f 3c d8 9a 4a 3d 46 9a 29 3b
       0.04888904 0.012647916 0.049464077 0.0025879308
0003e0 eb 4f a3 bc 31 d5 a8 bc 1f 00 01 bd 35 76 01 bd
       -0.019935569 -0.02060947 -0.031494256 -0.03160687
0003f0 28 27 7c 3d ce d4 90 3d 69 aa 6b 3d 60 d1 c8 3c
       0.06156078 0.07071839 0.057535563 0.0245139

fc1.bias f4 [120]
000000 5d f3 01 bd 8a 98 08 3c d4 dc f8 b9 73 ae f6 bc
       -0.03172623 0.008337149 -0.00047466776 -0.03011248
000010 da 76 df 3b d0 3b 06 bc 74 5c 00 bc b4 e1 51 bd
       0.006819588 -0.008192971 -0.007834543 -0.051240638
000020 00 4e 8e 3c 34 08 1f 3c e5 a3 84 3d ff 92 51 bd
       0.017371178 0.009706546 0.06476573 -0.051165577
000030 1b 2b 45 bc 58 76 a4 bc 3a db 84 3d a4 91 0c 3c
       -0.012034203 -0.020075962 0.06487127 0.008579645
000040 02 c6 c1 bb 62 87 9a bc c8 ed dc bc b2 80 8e 3d
       -0.005913497 -0.018863384 -0.026968852 0.069581404
000050 bf 2b 80 3c 2f e7 27 3d 5b e0 6e bb a8 c9 5a 3d
       0.01564586 0.04099196 -0.0036449644 0.05341497
000060 89 5f 72 bc b5 03 8d 3b 6e db d8 3b b9 d2 5f 3d
       -0.014793285 0.0043034204 0.006617955 0.05464432
000070 ea a1 20 bd 12 77 08 3d bf b4 74 bc ce 26 cd 3c
       -0.039216913 0.03331668 -0.014935671 0.025042918
000080 d9 c2 8a 39 28 04 f3 bb 41 91 e6 bc 28 21 4c 3c
       0.00026466584 -0.007416267 -0.028145434 0.012459077
000090 9f 09 93 3c e6 6a 5e 3c 20 76 c1 3b a1 77 81 3b
       0.017948924 0.013575291 0.005903974 0.0039510285
0000a0 c4 1f 25 3c 06 40 01 bd a0 76 1c bd d6 3e d3 bc
       0.010078374 -0.031555198 -0.038199067 -0.025786798
0000b0 42 5d 10 3d 84 93 c4 3a f2 c7 a5 3c eb 5a 88 bb
       0.035245188 0.0014997576 0.020236943 -0.004161229
0000c0 6e be 17 3d 10 27 bb 3b ce 91 52 bb a9 36 49 bc
       0.037046842 0.0057114437 -0.0032130363 -0.012281098
0000d0 dc ab 1a 3d 29 27 c4 bc 20 e8 ee bc fb 5b 9d 3c
       0.037761554 -0.023944454 -0.02916342 0.019208899
0000e0 3a 4b f3 bc 74 1c 52 bb ee b2 fd 3b 2a f3 64 bc
       -0.029698957 -0.0032060416 0.0077422773 -0.01397399
0000f0 2b 22 b5 3d 1b 45 f8 3d c5 c5 8d 3c 42 2b 3a ba
       0.08844408 0.12122556 0.017306218 -0.0007101783
000100 fd ad 3c 3c 18 7e b2 bb 67 ed eb 3b 0a 77 41 3d
       0.011516091 -0.0054471605 0.0071999314 0.047232665
000110 79 8d f1 bc 3b de 9a bc 59 46 d4 bc 8b bc c2 3c
       -0.029486405 -0.018904796 -0.02591245 0.023771545
000120 1d 72 d6 3d f1 9e 65 3c 97 69 84 bb 75 78 dd bb
       0.10470984 0.014014945 -0.0040409076 -0.0067587444
000130 76 30 94 bc 63 63 14 bd 40 42 e2 3b c0 27 8d 3d
       -0.018089514 -0.036227595 0.0069048703 0.06892347
000140 d0 c1 09 bd 3f 12 5f 3c 68 b0 0f 3c d6 d0 15 3e
       -0.0336321 0.01361519 0.008770086 0.14630446
000150 4f bd b3 ba a1 29 3f 3d f5 ca 03 bd 82 16 11 3d
       -0.0013713035 0.04667056 -0.032175977 0.035421856
000160 e8 a3 b4 3c 96 45 e6 3c 30 f1 3b bc 1e 86 2f bd
       0.022050813 0.028109353 -0.011471078 -0.042852513
000170 f2 19 80 bc 28 bf 8d 3d 1b 79 32 bc 16 dc 93 bb
       -0.015637372 0.06921226 -0.010893132 -0.0045123203
000180 e3 1d 85 bc 63 6d 14 bc 89 13 85 3d 1b 37 d6 bb
       -0.016249603 -0.009059283 0.06497867 -0.006537331
000190 ed c8 3b 3d 3c af 89 bc c6 9f b6 3a 85 c3 4e bb
       0.045845915 -0.016807191 0.0013933114 -0.0031549644
0001a0 9a 0d 94 bc b5 83 3d 3c 6a f4 5b bc 71 b1 94 3d
       -0.018072892 0.011567046 -0.013424972 0.07260407
0001b0 27 4d cc 3c 05 f0 94 3b 09 8d 79 3c fb 4e 90 3c
       0.024939133 0.004545214 0.015231379 0.017615786
0001c0 da 06 6a 3d 92 5e ef 3d 91 f0 ad 3d 6a 13 e5 3c
       0.05713544 0.1168796 0.0849315 0.027963359
0001d0 a3 04 c9 bc 6e 30 f1 3d cf bb c1 3c 08 74 8f 3d
       -0.024538344 0.11776815 0.023649124 0.07004553

fc2.weight f4 [84, 120]
000000 a3 74 d0 3d bd d6 c9 3a d7 31 12 3b 47 04 80 3d
       0.10178497 0.001539908 0.002230754 0.06250816
000010 4c 7c c6 3d ff b6 42 bd 15 5e ec bb ee f4 56 3c
       0.096916765 -0.0475378 -0.007213364 0.013119919
000020 b7 da 7e bd 30 80 17 bb b2 e1 b7 3c a6 88 4f 3c
       -0.0622203 -0.0023117177 0.022446487 0.012666857
000030 17 4c 29 3d 9a d6 04 bd 90 87 de 3b 84 d6 0f bd
       0.04133233 -0.032431222 0.0067910627 -0.035116687
000040 a6 0a 2a bd a6 b9 13 bc 9b b8 24 bc f3 cd 83 3d
       -0.04151406 -0.00901643 -0.010053779 0.06435766
000050 c1 cc cc 3b bd 08 39 3d 94 bd b6 3d 75 76 b5 3d
       0.0062499945 0.04517435 0.08922878 0.088604845
000060 15 a9 a5 3d 91 49 c0 3d 06 0e c0 3d e3 91 b9 3d
       0.080888905 0.09389032 0.09377675 0.09061029
000070 36 f4 bc 3c 33 54 9e 3b 8e f4 37 bd 89 29 f9 3c
       0.023065668 0.0048318147 -0.04491096 0.030415313
000080 0a 73 93 3d 37 ce 9c bc 22 9c 6a 3b 9d 00 52 3d
       0.07199676 -0.0191413 0.0035798629 0.051270116
000090 98 d6 a8 3d b3 6c 23 bd e1 e0 cf bc f9 de 99 3d
       0.082440555 -0.039898586 -0.025375785 0.07513232
0000a0 dd b2 46 bd 7a de 3b 3d 0f f1 7a 3d 29 f1 a1 bd
       -0.04851042 0.045866467 0.061265048 -0.07907326
0000b0 f1 93 5a 3d 75 9c 36 3d 53 18 de 3d 90 3e ee bc
       0.053363744 0.044582803 0.10844483 -0.029082566
0000c0 17 da 28 bc c0 8f a3 bd 39 2a a6 bd 4d 82 85 3d
       -0.010305903 -0.079864025 -0.08113522 0.065189935
0000d0 6b bb 5b bd 32 48 71 bd 49 c6 39 3c bf 33 a8 bc
       -0.053645533 -0.05890674 0.011338779 -0.020532487
0000e0 c6 db 21 bd d3 07 23 3c 2b 20 f1 3c e3 18 5b 3c
       -0.039516233 0.009950596 0.029434284 0.013372633
0000f0 f5 59 80 3d 5c 8a e8 bb fc 9d 44 bd 47 27 85 3d
       0.06267158 -0.007096572 -0.04800223 0.06501632
000100 47 e4 e9 bc 2e ee 21 bd ab 63 6e 3d 11 dd 4f 3d
       -0.028551234 -0.039533786 0.05820052 0.050747935
000110 2b 5f 6d bd cc 63 9e 3d 0e bd bc 3d 5f 32 71 bc
       -0.057952087 0.077338785 0.09215747 -0.014721482
000120 ef a7 fc bc e5 49 58 bd c5 50 9c bd 12 e9 e8 bc
       -0.030841796 -0.052804846 -0.07632593 -0.02843145
000130 5b bf 85 bb 71 da a0 3d 1a 70 37 3d 42 6b e3 3c
       -0.0040816492 0.078541644 0.044784643 0.027761105
000140 55 c4 cd 3c fa 53 b2 bc 9b 22 b0 bc 54 ed c0 3d
       0.025118032 -0.021768559 -0.021500876 0.09420267
000150 ab 2e 71 bb af cc ac 3d e9 da bb bc af 83 b6 3d
       -0.0036801498 0.08437478 -0.022931533 0.089118354
000160 c5 54 ae 3d 47 1d 06 bd 0e ad 65 bd bb 1b c7 bc
       0.08512262 -0.032742765 -0.05607324 -0.024305215
000170 32 cf e3 bb c2 d6 f6 3c 8f ac ba 3d 18 74 bc 3b
       -0.00695219 0.030131701 0.09114944 0.005751144
000180 cd 88 b6 3d 15 f7 be 3d fc 27 d0 bc a3 cb 96 3d
       0.089128114 0.09324471 -0.025409691 0.07363059
000190 c1 8c 94 3d 53 d1 3a 3d 85 69 0a 3d fb 96 1b bd
       0.07253409 0.045609783 0.033792038 -0.037985783
0001a0 3d a1 71 bb 5a 29 2c 3d 94 f5 14 3d c7 fb 97 ba
       -0.0036869787 0.042031623 0.036367014 -0.0011595421
0001b0 38 29 1d bb 0f 1f 9c bd 76 67 d5 bb 0e 5a 81 3d
       -0.0023980867 -0.076231115 -0.0065125776 0.06316005
0001c0 4a ed c0 3d 61 8c ee 3d 01 f7 82 3d 48 40 80 3d
       0.09420259 0.11647869 0.063947685 0.06262261
0001d0 9b 96 25 bd b0 94 df 3b 55 37 c3 3d fd 4d c7 3c
       -0.04042683 0.006823145 0.09532038 0.02432918
0001e0 b7 d1 60 bd 2c 9f e1 bc c2 4d 24 bd 08 56 b9 bd
       -0.0548875 -0.02754172 -0.040113218 -0.09049612
0001f0 68 6d b4 3d 26 0d 19 bd 49 ed 28 bd ed 43 1a bd
       0.0880993 -0.037366055 -0.041241918 -0.037662435
000200 74 1f bd 3c 03 f0 4f bd 30 57 88 3b 00 4e a3 3d
       0.023086287 -0.050766002 0.004160784 0.07973862
000210 38 d7 53 3d d2 93 a1 bd b9 ba 96 bd 60 18 32 bc
       0.05171892 -0.078895226 -0.07359833 -0.010870069
000220 cf 39 96 bd 30 3a ac bc 7e a7 11 bd 3f e1 04 bd
       -0.07335245 -0.02102384 -0.035560124 -0.032441374
000230 10 a0 02 3c 00 93 ea 39 60 8d 83 bc 26 5e 33 bd
       0.007972732 0.00044741482 -0.016058624 -0.04379096
000240 6d 9d 0a bd 14 e1 88 bc 40 9a 31 3d e3 dc a9 bd
       -0.03384154 -0.016708888 0.043359995 -0.08294084
000250 73 59 49 bd 50 64 c8 bc 68 cd 7c 3d 0e 98 a8 3d
       -0.04915757 -0.024461895 0.06171933 0.08232127
000260 04 4e 94 3d d0 f1 f7 3b 35 bd 87 bd 72 c7 aa 3d
       0.07241443 0.007566668 -0.06627885 0.083388224
000270 88 2e 95 3c 20 a1 84 bd b8 34 82 3d f0 e4 d2 bc
       0.018210664 -0.06476045 0.063577116 -0.025743932
000280 36 c3 b5 bd c1 3c 7b bd 96 0e 92 3d c0 c0 b0 3b
       -0.08875124 -0.061337236 0.07131688 0.0053940713
000290 7c 67 38 3d 98 8d f8 3c 84 83 d5 3c 24 94 8b 3d
       0.045020565 0.030340955 0.026063688 0.06815365
0002a0 50 cb 01 3c 22 c8 89 3d 30 e8 84 3c a0 aa 0d 3d
       0.007922009 0.067276254 0.016223997 0.03458655
0002b0 a0 c1 a2 bb 84 e3 f2 bc 94 78 84 bd fd 41 45 bd
       -0.0049669296 -0.029649504 -0.06468311 -0.048158634
0002c0 24 a8 92 3d 3c 37 a4 bc 38 5c ab bc a8 d8 21 3d
       0.071609765 -0.020045869 -0.020917997 0.03951326
0002d0 28 ed 8f 3d e0 51 c7 bc d8 89 9f 3d 74 3b b9 3d
       0.07027656 -0.024331033 0.077899635 0.09044543
0002e0 52 7d 9c 3d c1 a7 34 bd b8 51 6b 3c a0 6a 3c 3d
       0.076410905 -0.044105295 0.014362745 0.046000123
0002f0 1c b0 c5 bc 50 9b cd bc 60 7a 54 bc f4 3a 96 bd
       -0.024131827 -0.025098473 -0.01296863 -0.07335463
000300 e8 77 61 bc 2c 80 bd bc 60 f8 73 bb e4 86 64 3d
       -0.013761498 -0.023132406 -0.00372269 0.055792704
000310 94 fb 19 3d c4 e2 ef bc e4 d1 ab 3d dc e7 81 bd
       0.03759344 -0.029282935 0.08389643 -0.06343052
000320 58 7e e0 bc 18 21 b5 3c 39 94 12 bd 98 4e 66 3d
       -0.027403995 0.022110507 -0.035785887 0.056227297
000330 74 d7 d3 3c 00 95 d4 3c ae 59 90 bd 84 dc 92 bd
       0.025859572 0.025949955 -0.07048355 -0.07170966
000340 1c b1 b6 bc c4 69 41 3d 40 7b 07 bc 00 73 d5 3a
       -0.02230125 0.047220007 -0.008269131 0.0016284883
000350 99 d3 35 bd 44 c6 0d 3d 28 24 87 3d 68 7e 3a 3c
       -0.04439125 0.03461291 0.06598693 0.011382677
000360 00 3c 07 3d 14 70 8d bd c0 92 f3 3b 83 24 13 bd
       0.033016205 -0.06906143 0.0074332654 -0.035923492
000370 b4 89 d5 bc b0 52 82 3c b5 63 0d bd b6 77 ad bd
       -0.026066639 0.01590857 -0.034518916 -0.08470099
000380 90 10 97 3c 00 28 08 bc 20 f1 26 3b 50 06 ad bd
       0.018440515 -0.008310318 0.0025473312 -0.0844847
000390 70 14 90 3b c0 aa 60 bb df ed a6 bd 4c 36 96 3c
       0.0043969676 -0.0034281462 -0.08150839 0.018336438
0003a0 eb c9 18 bd 58 9a 77 bd 6c 57 ee 3c 58 37 8f 3d
       -0.03730194 -0.060449928 0.02909442 0.06992978
0003b0 5c c9 83 3c 68 2a 63 3c f4 b5 38 3d d4 c1 85 3c
       0.016087227 0.013865091 0.0450954 0.016327776
0003c0 f0 bf ae 3d 72 f2 ac bd 80 13 68 bb d6 78 9c 3d
       0.08532703 -0.0844468 -0.0035412014 0.07640235
0003d0 80 36 3e 3c 40 e7 19 3d 1c 6d 22 3d 80 62 70 3b
       0.0116096735 0.037574053 0.039654836 0.0036679804
0003e0 ec 10 a7 bc 06 c7 3d bd 71 50 8b bd f0 10 ec bb
       -0.020393811 -0.04633238 -0.06802452 -0.0072041675
0003f0 52 ce 95 3d 54 ee 97 bd c0 c1 7f bc 64 4b 50 bd
       0.07314743 -0.07418504 -0.015610158 -0.050853148

fc2.bias f4 [84]
000000 e2 26 17 3d b3 a4 6e bd b8 ad 50 bc d5 0c a2 bd
       0.036902316 -0.05826254 -0.01273673 -0.07912604
000010 3b 06 9c 3d f4 a5 63 bd 6c 1a a0 bd f1 79 8e 3d
       0.07618376 -0.055578187 -0.078175396 0.06956852
000020 85 39 c2 bd 3a 6c be 3d 20 7d 03 3d 7f e4 6e 3d
       -0.09483627 0.09297986 0.03210175 0.05832338
000030 d4 b0 db bc 7a ce 87 3d 0b 0f 07 3c 2a 23 68 3d
       -0.026817717 0.06631179 0.008243333 0.05667416
000040 36 9d b0 3c b3 9e 8a 3d 80 e7 d4 bc 1c de ad 3d
       0.021559339 0.06768551 -0.025989294 0.084896296
000050 1d bb 0c 3e d2 38 9c bd 3f f4 9c 3d ef 58 4d bd
       0.13743253 -0.07628025 0.07663774 -0.05013364
000060 2c 92 d2 3d 00 34 c6 3d 65 21 ef 3d 78 5e b6 3c
       0.10281786 0.09677887 0.116762914 0.022261843
000070 48 af 68 bc 22 da 4b 3c 85 f0 0b bc a0 52 51 3d
       -0.014201947 0.012442144 -0.008541231 0.051104188
000080 3e 91 1e bd 3a a2 a7 bd 11 64 40 3c e0 3d 6f bc
       -0.038712732 -0.08185239 0.011742608 -0.0146021545
000090 d2 b1 ac 3d f8 92 19 3d 9d b4 6e bd 15 bf 8b 3d
       0.08432354 0.037493676 -0.058277715 0.068235554
0000a0 0c a6 cd bc 48 8e 24 bd db 8d d6 3c 72 40 8c 3d
       -0.025103591 -0.040174752 0.026190689 0.068482295
0000b0 0b 7c e1 bd 8a 1f 01 3c 0f 66 49 bd 87 1f 06 3e
       -0.110099874 0.007881055 -0.049169596 0.13097964
0000c0 37 f7 d3 bb ab fb 4d 3a 6f 10 98 bd ec db 0f 3d
       -0.0064686793 0.0007857631 -0.074250095 0.035121843
0000d0 04 09 a6 3d e2 44 b7 bd 95 f3 0e bc 8e 34 ba 3e
       0.08107188 -0.08948685 -0.008725067 0.3636822
0000e0 fa 9b 77 bd e2 4a c7 bd c5 57 62 bd 5c 69 35 bd
       -0.060451485 -0.0973108 -0.055259485 -0.04428993
0000f0 51 43 97 3c ec fc 1e bd d4 4e 0f 3d db 38 ab 3d
       0.018464716 -0.038815424 0.034987286 0.08360454
000100 dd 05 0b 3d 41 43 25 bd 54 f1 f8 3b bb 7c 98 bd
       0.03394114 -0.04034734 0.007597128 -0.074456654
000110 61 aa 55 3c f2 5a f2 3d 73 0a cb bd c5 00 ab bd
       0.01304111 0.11833753 -0.099141024 -0.08349756
000120 5b e5 01 bd 56 39 c4 3d 9e 2a 3b bb 38 1b d2 3c
       -0.03171287 0.095812485 -0.0028559337 0.025647745
000130 7c f0 9c 3d 86 91 ac 3d 45 5a 4f bc 6f 5b 14 3d
       0.07663056 0.08426194 -0.012655799 0.03622001
000140 75 a8 38 3d 6a 6e 3d 3d 2c 20 e0 3d 6d ac 74 3e
       0.04508253 0.046247877 0.10943636 0.238939

fc3.weight f4 [10, 84]
000000 2d f8 5d 3d 3a e3 3f 3d f7 ba 9f 3d cd 0a a9 3c
       0.054191757 0.04684756 0.077993326 0.020635033
000010 c2 c5 43 bd 9b 39 8f bd 4f 99 aa bd 2e b5 56 bd
       -0.04779602 -0.06993409 -0.083300225 -0.05241888
000020 28 94 82 3a 98 ac 7d 3d dd a7 1e bd 22 67 4e 3d
       0.0009962367 0.061932176 -0.038734306 0.050391324
000030 50 01 74 bc c7 d0 a3 3d aa ae a9 bb ca 9d ca 3c
       -0.014892891 0.079988055 -0.0051782923 0.024733443
000040 1c 9a b7 bd 31 39 b7 bd 41 2f 84 bd 13 99 45 3d
       -0.08964941 -0.08946455 -0.064543255 0.048241686
000050 81 a1 6c 3d 5b 4c a3 bc e4 7d b8 bc c5 c5 38 bc
       0.05777121 -0.01993387 -0.022520967 -0.011277621
000060 4f 03 9c 3d e6 9f e6 3d b5 d9 85 3d c8 d4 e7 3d
       0.076178186 0.11260967 0.06535665 0.11319882
000070 45 45 a5 3d ad 09 11 bd 54 37 a8 3d 39 bf e5 bc
       0.08069853 -0.03540962 0.08213678 -0.028045284
000080 66 1c c2 bd 0a fe 80 bc a6 ab 24 bd 83 12 9d bd
       -0.09478073 -0.015746135 -0.04020276 -0.076695465
000090 6b 81 2b bc e2 76 9f 3d a7 63 1d bd e8 3c c9 3d
       -0.010467867 0.07786347 -0.038425114 0.0982607
0000a0 36 02 4d 3d 75 cd 84 3d d0 38 89 3b 26 ac 27 bd
       0.050050937 0.064845 0.004187681 -0.040935658
0000b0 db f5 05 bd 23 8b 89 bd 13 e1 bc 3c 91 58 e0 3d
       -0.03270517 -0.06715991 0.023056543 0.10954393
0000c0 ca 44 8f 3d 9e a1 8b 3b f8 5a e4 bc 7a e8 35 bc
       0.06995542 0.0042612096 -0.027875409 -0.01110279
0000d0 11 95 21 3d d1 6e e9 bc 17 6a 44 bc b6 47 28 3d
       0.0394488 -0.028495224 -0.011988184 0.041084014
0000e0 b7 bb 1b 3d 15 02 01 3c d8 80 1b 3d 22 a1 70 bd
       0.038020816 0.007874032 0.03796467 -0.05874742
0000f0 a6 bb 81 bd a9 67 92 bd f7 f7 09 bd e7 d2 0f bd
       -0.06334619 -0.07148678 -0.033683743 -0.03511324
000100 52 d7 ac bc 76 38 a7 bd 47 9e 10 bd f3 c6 96 bd
       -0.021098766 -0.08165066 -0.035307195 -0.07362165
000110 c3 a0 9c 3a a3 33 e8 3d c8 24 61 bd 64 d8 92 3c
       0.0011949766 0.11337974 -0.054966718 0.017925449
000120 fe 8d 4a 3d 7b 9f 87 bc 34 df 4d bc 2c 60 98 3d
       0.04945182 -0.016555538 -0.012565423 0.07440218
000130 30 dd 7a bd 8f 7a 08 3c 79 d4 a2 bc b9 4d 96 3c
       -0.061246097 0.0083300015 -0.019876705 0.018347608
000140 18 47 ba bd 33 87 5d 3b 1d f7 b6 3d f1 ca 9e 3c
       -0.09095591 0.003380251 0.08933852 0.01938388
000150 7c 71 51 3d db 08 9c 3d dd f5 c2 bd dc 78 5d 3d
       0.051133618 0.076188765 -0.09519551 0.05407034
000160 e2 07 e2 3c a8 0a 28 3c 8a 72 b5 3b a3 6f 6c 3d
       0.02759165 0.010256447 0.0055373358 0.057723653
000170 88 3b 16 3c 76 ae 86 bc e9 ad 93 3d e0 72 30 bd
       0.009169467 -0.016440611 0.07210905 -0.043078303
000180 64 2e 6e bd 3d 88 60 bd 30 d9 6b bc a9 bb bb 3c
       -0.05814971 -0.054817427 -0.014395043 0.022916632
000190 2d 52 47 3d 75 7c 5b 3d 9d 46 92 bd ea a0 d7 ba
       0.048662353 0.05358549 -0.07142375 -0.0016451154
0001a0 bd 94 c0 3c f1 d7 40 3c fc c1 dd bc b8 aa 7c bd
       0.023508424 0.011770234 -0.027070038 -0.061686248
0001b0 5f a1 65 3c 07 fe 4a 3d 40 cf a7 bd 2d e6 15 bc
       0.014015525 0.049558666 -0.08193827 -0.009149116
0001c0 d0 9d cc 3b 4a c9 f7 3d 9d 70 de 3d 11 0d fd 3c
       0.0062443987 0.1209894 0.10861323 0.03089002
0001d0 df 0a 27 bd a9 63 9e 3c 5d 83 68 bd 6f 7e 03 3e
       -0.04078185 0.019334631 -0.056765903 0.128412
0001e0 72 9e c7 3d 11 4a e6 3d 5a b4 bb bd a0 15 bb bd
       0.09747018 0.11244596 -0.09165259 -0.09134984
0001f0 31 c1 5a bd af 49 30 3d 19 2a 56 3d a6 ac b6 3d
       -0.053406898 0.04303902 0.05228624 0.08919649
000200 0a f9 8f 3d 67 93 ce bd 1a d7 14 bd 75 90 ad 3d
       0.07029922 -0.100867085 -0.03633795 0.084748186
000210 bf 95 9a 3d 60 11 20 bd c1 24 ba 3d f2 1f cf 3d
       0.07548093 -0.03907907 0.090890415 0.10113515
000220 23 63 d7 3d 4b 31 d4 3d 5b ec 49 3c e3 27 29 3d
       0.10516956 0.103609644 0.012324418 0.041297805
000230 4d 11 c7 3c 17 bb 91 3d 3a 69 5e 3d 5c 31 9c bc
       0.024300242 0.07115763 0.05429957 -0.019066505
000240 21 e6 02 be 98 3f a2 bc e4 39 9c bd e3 cb a5 3d
       -0.127831 -0.019805714 -0.07628229 0.08095529
000250 65 c5 6f 3d 3c 59 92 3c 97 b2 13 bd d9 a5 e1 bc
       0.05853786 0.017864816 -0.03605899 -0.027544903
000260 69 01 9c 3d 29 f5 b5 bd 59 ab 97 3d 91 8c b9 3d
       0.076174565 -0.08884651 0.07405729 0.09060014
000270 4e dc 3f bd 81 64 a7 3b a5 eb 6a bc 24 be 6c 3c
       -0.04684096 0.0051084165 -0.014338409 0.01444963
000280 cc 92 cc bd 2b 3b 1e 3d 88 98 93 3d 52 c8 a2 bd
       -0.09988937 0.038630646 0.072068274 -0.07948364
000290 09 87 27 3d 60 f4 3d 3d e5 84 b4 3d 18 35 86 3b
       0.040900264 0.046375632 0.0881441 0.0040956847
0002a0 66 d2 00 3d 42 8b 9e bd 85 33 a0 3d 2c 81 94 3d
       0.03145065 -0.07741405 0.078223266 0.072512
0002b0 fe c6 8b 3d 00 57 af ba e4 b5 75 3d 0f 01 19 be
       0.06825064 -0.0013377368 0.059987918 -0.1494181
0002c0 2a 3d 9e 3d 6e 34 e1 bc c1 5b 20 be 97 3f a6 bd
       0.0772651 -0.02749082 -0.15660001 -0.081175976
0002d0 d2 4c 88 bd de dc fe bc 92 7d 10 3d e6 fe 0a be
       -0.06655277 -0.031111177 0.035276003 -0.13573799
0002e0 c4 3f 18 bb 7f 97 fa 3c 8c e9 aa bd 93 f0 01 bd
       -0.0023231367 0.030589817 -0.08345327 -0.03172357
0002f0 13 05 a3 bd 9a f5 1a 3d e1 fc e9 bd 05 f7 25 3d
       -0.07959952 0.03783188 -0.11425186 0.04051878
000300 4e 68 0a be 05 78 22 bd be 81 75 bd 1f 2a a8 bd
       -0.13516352 -0.03966524 -0.059938185 -0.08211159
000310 00 89 87 3b a1 05 d5 bd e6 bb 35 be 41 94 32 bc
       0.0041362047 -0.10401464 -0.17747459 -0.010899604
000320 9b f2 3a bf cf 4c 54 3d 68 0d 46 3d 36 d1 38 bd
       -0.73026437 0.051831063 0.04835263 -0.045121394
000330 cb 92 83 3c e3 4c d5 bd 81 ca dc bd 5b 27 20 be
       0.016061207 -0.104150556 -0.10780812 -0.15640013
000340 ee 9d 3b 3d 8c 40 80 bd f7 25 ab bd 13 33 a4 bd
       0.04580491 -0.06262311 -0.083568506 -0.08017554
000350 bd d0 92 3c 4a b3 b5 3d e0 61 f0 bd 1a 6b 00 bd
       0.0179218 0.08872087 -0.11737418 -0.03135214
000360 fa 6b 8e 3d 38 b2 45 3d 7a 53 84 3d 40 a3 df bd
       0.06954189 0.048265666 0.064612344 -0.10919809
000370 f8 0b cb bd dd 35 86 3d 4a 8a 4e 3d c9 9d 79 bf
       -0.09914392 0.06553242 0.05042485 -0.97506386
000380 f3 a4 49 3d eb b9 4b 3d 44 4f 20 be 54 64 85 3c
       0.049229573 0.049737852 -0.15655237 0.016283192
000390 e7 9d 46 bd 4f d4 81 bd f6 e8 52 bd 1e 74 1a bd
       -0.04849043 -0.06339323 -0.0514917 -0.037708394
0003a0 bf 87 bd 3d 5a f4 37 bd 20 13 cf bd f7 dd 73 3d
       0.09254407 -0.044910766 -0.1011107 0.059537854
0003b0 fc 9e 04 be 39 08 02 be 89 5f dd 3a ee 47 22 3d
       -0.12951273 -0.12698449 0.0016889434 0.03961938
0003c0 3d 15 ba 3d 65 35 25 be b7 f7 80 bd df 0a e4 bd
       0.09086082 -0.1613365 -0.06297248 -0.11134886
0003d0 00 f9 97 3d 33 80 2f be ff 88 f0 bd a3 85 63 bf
       0.0742054 -0.17138748 -0.1174488 -0.8887579
0003e0 08 8c 05 3d df b4 c4 bd 04 32 10 bd 98 b2 03 bf
       0.032604247 -0.09604811 -0.03520395 -0.5144439
0003f0 75 90 2b 3b ad 4a 77 bd 89 6c cb 3d a0 18 41 bd
       0.0026178632 -0.06037395 0.09932811 -0.047142625

fc3.bias f4 [10]
000000 3f 5e 9d 3c 35 7f c0 bd 21 1a 44 3d c9 cd 17 be
       0.01920998 -0.09399263 0.04787648 -0.14824595
000010 b3 49 1c 3d 7e db ba bd ff 4b 15 bc dc 0e 98 bd
       0.038156223 -0.09123896 -0.009112357 -0.07424709
000020 ea 2e 05 3c 9e b3 bf bd
       0.008128861 -0.09360431
